…
2023-01-15 07:22:22.134952: I tensorflow/core/common_runtime/gpu/gpu_device.cc:1261] Device interconnect StreamExecutor with strength 1 edge matrix:
2023-01-15 07:22:22.135049: I tensorflow/core/common_runtime/gpu/gpu_device.cc:1267]
2023-01-15 07:22:22.135680: I tensorflow/compiler/jit/xla_gpu_device.cc:99] Not creating XLA devices, tf_xla_enable_xla_devices not set
Model: 
sequential
_________________________________________________________________
Layer (type)                 Output Shape              Param #
=================================================================
conv2d (Conv2D)              (None, 62, 62, 64)        1792
_________________________________________________________________
conv2d_1 (Conv2D)            (None, 60, 60, 64)        36928
_________________________________________________________________
batch_normalization (BatchNo (None, 60, 60, 64)        256
_________________________________________________________________
max_pooling2d (MaxPooling2D) (None, 30, 30, 64)        0
_________________________________________________________________
global_average_pooling2d (Gl (None, 64)                0
_________________________________________________________________
dense (Dense)                (None, 256)               16640
_________________________________________________________________
batch_normalization_1 (Batch (None, 256)               1024
_________________________________________________________________
dense_1 (Dense)              (None, 8)                 2056
=================================================================
Total params: 58,696
Trainable params: 58,056
Non-trainable params: 640
_________________________________________________________________
Model Created Successfully!
2023-01-15 07:22:29.864567: I tensorflow/compiler/mlir/mlir_graph_optimization_pass.cc:116] None of the MLIR optimization passes are enabled (registered 2)
Epoch 1/50
10240/10240 [==============================] - 598s 57ms/step - loss: 1.8512 - accuracy: 0.3279 - val_loss: 1.5182 - val_accuracy: 0.5221
…
